…
      "Computer Vision"
    ]
  },
  {
    "objectID": "Lecture-4-Computer-Vision/computer-vision.html#inspect-the-model",
    "href": "Lecture-4-Computer-Vision/computer-vision.html#inspect-the-model",
    "title": "Computer Vision",
    "section": "Inspect the model",
    "text": "Inspect the model\n\nmodel.summary()\n\nModel: \"sequential\"\n\n\n\n┏━━━━━━━━━━━━━━━━━━━━━━━━━━━━━━━━━┳━━━━━━━━━━━━━━━━━━━━━━━━━━━┳━━━━━━━━━━━━┓\n┃ Layer (type)                    ┃ Output Shape              ┃    Param # ┃\n┡━━━━━━━━━━━━━━━━━━━━━━━━━━━━━━━━━╇━━━━━━━━━━━━━━━━━━━━━━━━━━━╇━━━━━━━━━━━━┩\n│ rescaling (Rescaling)           │ (None, 80, 80, 1)         │          0 │\n├─────────────────────────────────┼───────────────────────────┼────────────┤\n│ conv1 (Conv2D)                  │ (None, 80, 80, 16)        │        160 │\n├─────────────────────────────────┼───────────────────────────┼────────────┤\n│ pool1 (MaxPooling2D)            │ (None, 40, 40, 16)        │          0 │\n├─────────────────────────────────┼───────────────────────────┼────────────┤\n│ conv2 (Conv2D)                  │ (None, 40, 40, 32)        │      4,640 │\n├─────────────────────────────────┼───────────────────────────┼────────────┤\n│ pool2 (MaxPooling2D)            │ (None, 20, 20, 32)        │          0 │\n├─────────────────────────────────┼───────────────────────────┼────────────┤\n│ conv3 (Conv2D)                  │ (None, 20, 20, 64)        │     18,496 │\n├─────────────────────────────────┼───────────────────────────┼────────────┤\n│ pool3 (MaxPooling2D)            │ (None, 10, 10, 64)        │          0 │\n├─────────────────────────────────┼───────────────────────────┼────────────┤\n│ flatten (Flatten)               │ (None, 6400)              │          0 │\n├─────────────────────────────────┼───────────────────────────┼────────────┤\n│ dense (Dense)                   │ (None, 128)               │    819,328 │\n├─────────────────────────────────┼───────────────────────────┼────────────┤\n│ dense_1 (Dense)                 │ (None, 57)                │      7,353 │\n└─────────────────────────────────┴───────────────────────────┴────────────┘\n\n\n\n Total params: 849,977 (3.24 MB)\n\n\n\n Trainable params: 849,977 (3.24 MB)\n\n\n\n Non-trainable params: 0 (0.00 B)",
    "crumbs": [
      "Module 4",
      "Computer Vision"
    ]
  },
  {
    "objectID": "Lecture-4-Computer-Vision/computer-vision.html#plot-the-cnn",
    "href": "Lecture-4-Computer-Vision/computer-vision.html#plot-the-cnn",
…
    "title": "Categorical Variables",
    "section": "Inspecting a complex model",
    "text": "Inspecting a complex model\n\nfrom keras.utils import plot_model\n\n\n\n\nplot_model(model, show_layer_names=True)\n\n\n\n\n\n\n\n\n\n\n\nmodel.summary(line_length=75)\n\nModel: \"functional_10\"\n\n\n\n┏━━━━━━━━━━━━━━━━━━━━━┳━━━━━━━━━━━━━━━━━━━┳━━━━━━━━┳━━━━━━━━━━━━━━━━━━━━━━┓\n┃                     ┃                   ┃  Param ┃                      ┃\n┃ Layer (type)        ┃ Output Shape      ┃      # ┃ Connected to         ┃\n┡━━━━━━━━━━━━━━━━━━━━━╇━━━━━━━━━━━━━━━━━━━╇━━━━━━━━╇━━━━━━━━━━━━━━━━━━━━━━┩\n│ input (InputLayer)  │ (None, 10)        │      0 │ -                    │\n├─────────────────────┼───────────────────┼────────┼──────────────────────┤\n│ hidden1 (Dense)     │ (None, 30)        │    330 │ input[0][0]          │\n├─────────────────────┼───────────────────┼────────┼──────────────────────┤\n│ hidden2 (Dense)     │ (None, 30)        │    930 │ hidden1[0][0]        │\n├─────────────────────┼───────────────────┼────────┼──────────────────────┤\n│ combined            │ (None, 40)        │      0 │ input[0][0],         │\n│ (Concatenate)       │                   │        │ hidden2[0][0]        │\n├─────────────────────┼───────────────────┼────────┼──────────────────────┤\n│ output (Dense)      │ (None, 1)         │     41 │ combined[0][0]       │\n└─────────────────────┴───────────────────┴────────┴──────────────────────┘\n\n\n\n Total params: 1,301 (5.08 KB)\n\n\n\n Trainable params: 1,301 (5.08 KB)\n\n\n\n Non-trainable params: 0 (0.00 B)",
    "crumbs": [
      "Module 3",
      "Categorical Variables"
    ]
  },
  {
    "objectID": "Lecture-3-Tabular-Data/categorical-variables.html#the-desired-architecture",
    "href": "Lecture-3-Tabular-Data/categorical-variables.html#the-desired-architecture",
…
    "text": "Feed LSTM a sequence of one-hots\n\nrandom.seed(42)\ninputs = keras.Input(shape=(max_length,), dtype=\"int64\")\nonehot = keras.ops.one_hot(inputs, max_tokens)\nx = layers.Bidirectional(layers.LSTM(24))(onehot)\nx = layers.Dropout(0.5)(x) \noutputs = layers.Dense(1, activation=\"sigmoid\")(x)    \none_hot_model = keras.Model(inputs, outputs)\none_hot_model.compile(optimizer=\"adam\",\n    loss=\"binary_crossentropy\", metrics=[\"accuracy\"])\none_hot_model.summary()\n\nModel: \"functional_8\"\n\n\n\n┏━━━━━━━━━━━━━━━━━━━━━━━━━━━━━━━━━┳━━━━━━━━━━━━━━━━━━━━━━━━━━━┳━━━━━━━━━━━━┓\n┃ Layer (type)                    ┃ Output Shape              ┃    Param # ┃\n┡━━━━━━━━━━━━━━━━━━━━━━━━━━━━━━━━━╇━━━━━━━━━━━━━━━━━━━━━━━━━━━╇━━━━━━━━━━━━┩\n│ input_layer_5 (InputLayer)      │ (None, 500)               │          0 │\n├─────────────────────────────────┼───────────────────────────┼────────────┤\n│ one_hot (OneHot)                │ (None, 500, 1000)         │          0 │\n├─────────────────────────────────┼───────────────────────────┼────────────┤\n│ bidirectional (Bidirectional)   │ (None, 48)                │    196,800 │\n├─────────────────────────────────┼───────────────────────────┼────────────┤\n│ dropout (Dropout)               │ (None, 48)                │          0 │\n├─────────────────────────────────┼───────────────────────────┼────────────┤\n│ dense_10 (Dense)                │ (None, 1)                 │         49 │\n└─────────────────────────────────┴───────────────────────────┴────────────┘\n\n\n\n Total params: 196,849 (768.94 KB)\n\n\n\n Trainable params: 196,849 (768.94 KB)\n\n\n\n Non-trainable params: 0 (0.00 B)"
  },
  {
    "objectID": "Lecture-5-Natural-Language-Processing/natural-language-processing.slides.html#fit-evaluate-1",
    "href": "Lecture-5-Natural-Language-Processing/natural-language-processing.slides.html#fit-evaluate-1",
…
    "text": "Custom embeddings\n\ninputs = keras.Input(shape=(max_length,), dtype=\"int64\")\nembedded = layers.Embedding(input_dim=max_tokens, output_dim=32,\n        mask_zero=True)(inputs)\nx = layers.Bidirectional(layers.LSTM(24))(embedded)\nx = layers.Dropout(0.5)(x)\noutputs = layers.Dense(1, activation=\"sigmoid\")(x)\nembed_lstm = keras.Model(inputs, outputs)\nembed_lstm.compile(\"adam\", \"binary_crossentropy\", metrics=[\"accuracy\"])\nembed_lstm.summary()\n\nModel: \"functional_10\"\n\n\n\n┏━━━━━━━━━━━━━━━━━━━━━┳━━━━━━━━━━━━━━━━━━━┳━━━━━━━━━┳━━━━━━━━━━━━━━━━━━━━━━┓\n┃ Layer (type)        ┃ Output Shape      ┃ Param # ┃ Connected to         ┃\n┡━━━━━━━━━━━━━━━━━━━━━╇━━━━━━━━━━━━━━━━━━━╇━━━━━━━━━╇━━━━━━━━━━━━━━━━━━━━━━┩\n│ input_layer_6       │ (None, 500)       │       0 │ -                    │\n│ (InputLayer)        │                   │         │                      │\n├─────────────────────┼───────────────────┼─────────┼──────────────────────┤\n│ embedding           │ (None, 500, 32)   │  32,000 │ input_layer_6[0][0]  │\n│ (Embedding)         │                   │         │                      │\n├─────────────────────┼───────────────────┼─────────┼──────────────────────┤\n│ not_equal           │ (None, 500)       │       0 │ input_layer_6[0][0]  │\n│ (NotEqual)          │                   │         │                      │\n├─────────────────────┼───────────────────┼─────────┼──────────────────────┤\n│ bidirectional_1     │ (None, 48)        │  10,944 │ embedding[0][0],     │\n│ (Bidirectional)     │                   │         │ not_equal[0][0]      │\n├─────────────────────┼───────────────────┼─────────┼──────────────────────┤\n│ dropout_1 (Dropout) │ (None, 48)        │       0 │ bidirectional_1[0][… │\n├─────────────────────┼───────────────────┼─────────┼──────────────────────┤\n│ dense_11 (Dense)    │ (None, 1)         │      49 │ dropout_1[0][0]      │\n└─────────────────────┴───────────────────┴─────────┴──────────────────────┘\n\n\n\n Total params: 42,993 (167.94 KB)\n\n\n\n Trainable params: 42,993 (167.94 KB)\n\n\n\n Non-trainable params: 0 (0.00 B)"
  },
  {
    "objectID": "Lecture-5-Natural-Language-Processing/natural-language-processing.slides.html#fit-evaluate-2",
    "href": "Lecture-5-Natural-Language-Processing/natural-language-processing.slides.html#fit-evaluate-2",
…
    "text": "Subsequences of a time series\nKeras has a built-in method for converting a time series into subsequences/chunks.\n\nfrom keras.utils import timeseries_dataset_from_array\n\nintegers = range(10)                                \ndummy_dataset = timeseries_dataset_from_array(\n    data=integers[:-3],                                 \n    targets=integers[3:],                               \n    sequence_length=3,                                      \n    batch_size=2,                                           \n)\n\nfor inputs, targets in dummy_dataset:\n    for i in range(inputs.shape[0]):\n        print([int(x) for x in inputs[i]], int(targets[i]))\n\n[0, 1, 2] 3\n[1, 2, 3] 4\n[2, 3, 4] 5\n[3, 4, 5] 6\n[4, 5, 6] 7\n\n\n\nSource: Code snippet in Chapter 10 of Chollet."
  },
  {
    "objectID": "Lecture-7-Recurrent-Neural-Networks-And-Time-Series/rnns-and-time-series.slides.html#on-time-series-splits",
    "href": "Lecture-7-Recurrent-Neural-Networks-And-Time-Series/rnns-and-time-series.slides.html#on-time-series-splits",
    "title": "Recurrent Neural Networks",
    "section": "On time series splits",
    "text": "On time series splits\nIf you have a lot of time series data, then use:\n\nfrom keras.utils import timeseries_dataset_from_array\ndata = range(20); seq = 3; ts = data[:-seq]; target = data[seq:]\nnTrain = int(0.5 * len(ts)); nVal = int(0.25 * len(ts))\nnTest = len(ts) - nTrain - nVal\nprint(f\"# Train: {nTrain}, # Val: {nVal}, # Test: {nTest}\")\n\n# Train: 8, # Val: 4, # Test: 5\n\n\n\n\n\ntrainDS = \\\n  timeseries_dataset_from_array(\n    ts, target, seq,\n    end_index=nTrain)\n\n\n\nvalDS = \\\n  timeseries_dataset_from_array(\n    ts, target, seq,\n    start_index=nTrain,\n    end_index=nTrain+nVal)\n\n\n\ntestDS = \\\n  timeseries_dataset_from_array(\n    ts, target, seq,\n    start_index=nTrain+nVal)\n\n\n\n\n\n\n\nTraining dataset\n[0, 1, 2] 3\n[1, 2, 3] 4\n[2, 3, 4] 5\n[3, 4, 5] 6\n[4, 5, 6] 7\n[5, 6, 7] 8\n\n\n\n\n\nValidation dataset\n[8, 9, 10] 11\n[9, 10, 11] 12\n\n\n\n\n\nTest dataset\n[12, 13, 14] 15\n[13, 14, 15] 16\n[14, 15, 16] 17\n\n\n\n\n\nAdapted from: François Chollet (2021), Deep Learning with Python, Second Edition, Listing 10.7."
  },
  {
    "objectID": "Lecture-7-Recurrent-Neural-Networks-And-Time-Series/rnns-and-time-series.slides.html#on-time-series-splits-ii",
    "href": "Lecture-7-Recurrent-Neural-Networks-And-Time-Series/rnns-and-time-series.slides.html#on-time-series-splits-ii",
    "title": "Recurrent Neural Networks",
    "section": "On time series splits II",
    "text": "On time series splits II\nIf you don’t have a lot of time series data, consider:\n\nX = []; y = []\nfor i in range(len(data)-seq):\n    X.append(data[i:i+seq])\n    y.append(data[i+seq])\nX = np.array(X); y = np.array(y);\n\n\n\n\nnTrain = int(0.5 * X.shape[0])\nX_train = X[:nTrain]\ny_train = y[:nTrain]\n\n\n\nnVal = int(np.ceil(0.25 * X.shape[0]))\nX_val = X[nTrain:nTrain+nVal]\ny_val = y[nTrain:nTrain+nVal]\n\n\n\nnTest = X.shape[0] - nTrain - nVal\nX_test = X[nTrain+nVal:]\ny_test = y[nTrain+nVal:]\n\n\n\n\n\n\n\nTraining dataset\n[0, 1, 2] 3\n[1, 2, 3] 4\n[2, 3, 4] 5\n[3, 4, 5] 6\n[4, 5, 6] 7\n[5, 6, 7] 8\n[6, 7, 8] 9\n[7, 8, 9] 10\n\n\n\n\n\nValidation dataset\n[8, 9, 10] 11\n[9, 10, 11] 12\n[10, 11, 12] 13\n[11, 12, 13] 14\n[12, 13, 14] 15\n\n\n\n\n\nTest dataset\n[13, 14, 15] 16\n[14, 15, 16] 17\n[15, 16, 17] 18\n[16, 17, 18] 19"
  },
  {
    "objectID": "Lecture-7-Recurrent-Neural-Networks-And-Time-Series/rnns-and-time-series.slides.html#creating-dataset-objects",
    "href": "Lecture-7-Recurrent-Neural-Networks-And-Time-Series/rnns-and-time-series.slides.html#creating-dataset-objects",
    "title": "Recurrent Neural Networks",
    "section": "Creating dataset objects",
    "text": "Creating dataset objects\n\n\n\n# Num
…
   validation_data=(X_val, X_val), callbacks=es);"
  },
  {
    "objectID": "Lecture-8-Generative-Networks/generative-networks.slides.html#the-model",
    "href": "Lecture-8-Generative-Networks/generative-networks.slides.html#the-model",
    "title": "Generative Networks",
    "section": "The model",
    "text": "The model\n\nmodel.summary()\n\nModel: \"sequential\"\n_________________________________________________________________\n Layer (type)                Output Shape              Param #   \n=================================================================\n rescaling (Rescaling)       (None, 80, 80, 1)         0         \n                                                                 \n flatten (Flatten)           (None, 6400)              0         \n                                                                 \n dense (Dense)               (None, 400)               2560400   \n                                                                 \n dense_1 (Dense)             (None, 6400)              2566400   \n                                                                 \n reshape (Reshape)           (None, 80, 80, 1)         0         \n                                                                 \n rescaling_1 (Rescaling)     (None, 80, 80, 1)         0         \n                                                                 \n=================================================================\nTotal params: 5126800 (19.56 MB)\nTrainable params: 5126800 (19.56 MB)\nNon-trainable params: 0 (0.00 Byte)\n_________________________________________________________________\n\n\n\nmodel.evaluate(X_val, X_val, verbose=0)\n\n2263.939453125"
  },
  {
    "objectID": "Lecture-8-Generative-Networks/generative-networks.slides.html#some-recovered-image",
…
idation_data=(X_val, X_val), callbacks=es);"
  },
  {
    "objectID": "Lecture-8-Generative-Networks/generative-networks.slides.html#the-model-1",
    "href": "Lecture-8-Generative-Networks/generative-networks.slides.html#the-model-1",
    "title": "Generative Networks",
    "section": "The model",
    "text": "The model\n\nmodel.summary()\n\nModel: \"sequential_1\"\n_________________________________________________________________\n Layer (type)                Output Shape              Param #   \n=================================================================\n rescaling_2 (Rescaling)     (None, 80, 80, 1)         0         \n                                                                 \n lambda (Lambda)             (None, 80, 80, 1)         0         \n                                                                 \n flatten_1 (Flatten)         (None, 6400)              0         \n                                                                 \n dense_2 (Dense)             (None, 400)               2560400   \n                                                                 \n dense_3 (Dense)             (None, 6400)              2566400   \n                                                                 \n lambda_1 (Lambda)           (None, 6400)              0         \n                                                                 \n reshape_1 (Reshape)         (None, 80, 80, 1)         0         \n                                                                 \n rescaling_3 (Rescaling)     (None, 80, 80, 1)         0         \n                                                                 \n=================================================================\nTotal params: 5126800 (19.56 MB)\nTrainable params: 5126800 (19.56 MB)\nNon-trainable params: 0 (0.00 Byte)\n_________________________________________________________________\n\n\n\nmodel.evaluate(X_val, X_val, verbose=0)\n\n2382.336669921875"
  },
  {
    "objectID": "Lecture-8-Generative-Networks/generative-networks.slides.html#some-recovered-image-1",
…
_val), callbacks=es);"
  },
  {
    "objectID": "Lecture-8-Generative-Networks/generative-networks.slides.html#encoder-summary",
    "href": "Lecture-8-Generative-Networks/generative-networks.slides.html#encoder-summary",
    "title": "Generative Networks",
    "section": "Encoder summary",
    "text": "Encoder summary\n\nencoder.summary()\n\nModel: \"sequential_2\"\n_________________________________________________________________\n Layer (type)                Output Shape              Param #   \n=================================================================\n rescaling_4 (Rescaling)     (None, 80, 80, 1)         0         \n                                                                 \n lambda_2 (Lambda)           (None, 80, 80, 1)         0         \n                                                                 \n conv2d (Conv2D)             (None, 80, 80, 16)        160       \n                                                                 \n max_pooling2d (MaxPooling2  (None, 40, 40, 16)        0         \n D)                                                              \n                                                                 \n conv2d_1 (Conv2D)           (None, 40, 40, 32)        4640      \n                                                                 \n max_pooling2d_1 (MaxPoolin  (None, 20, 20, 32)        0         \n g2D)                                                            \n                                                                 \n conv2d_2 (Conv2D)           (None, 20, 20, 64)        18496     \n                                                                 \n max_pooling2d_2 (MaxPoolin  (None, 10, 10, 64)        0         \n g2D)                                                            \n                                                                 \n flatten_2 (Flatten)         (None, 6400)              0         \n                                                                 \n dense_4 (Dense)             (None, 400)               2560400   \n                                                                 \n=================================================================\nTotal params: 2583696 (9.86 MB)\nTrainable params: 2583696 (9.86 MB)\nNon-trainable params: 0 (0.00 Byte)\n_________________________________________________________________"
  },
  {
    "objectID": "Lecture-8-Generative-Networks/generative-networks.slides.html#decoder-summary",
    "href": "Lecture-8-Generative-Networks/generative-networks.slides.html#decoder-summary",
    "title": "Generative Networks",
    "section": "Decoder summary",
    "text": "Decoder summary\n\ndecoder.summary()\n\nModel: \"sequential_3\"\n_________________________________________________________________\n Layer (type)                Output Shape              Param #   \n=================================================================\n dense_5 (Dense)             (None, 400)               160400    \n                                                                 \n reshape_2 (Reshape)         (None, 20, 20, 1)         0         \n                                                                 \n conv2d_3 (Conv2D)           (None, 20, 20, 128)       1280      \n                                                                 \n up_sampling2d (UpSampling2  (None, 40, 40, 128)       0         \n D)                                                              \n                                                                 \n conv2d_4 (Conv2D)           (None, 40, 40, 64)        73792     \n                                                                 \n up_sampling2d_1 (UpSamplin  (None, 80, 80, 64)        0         \n g2D)                                                            \n                                                                 \n conv2d_5 (Conv2D)           (None, 80, 80, 1)         65        \n                                                                 \n lambda_3 (Lambda)           (None, 80, 80, 1)         0         \n                                                                 \n rescaling_5 (Rescaling)     (None, 80, 80, 1)         0         \n                                                                 \n=================================================================\nTotal params: 235537 (920.07 KB)\nTrainable params: 235537 (920.07 KB)\nNon-trainable params: 0 (0.00 Byte)\n_________________________________________________________________\n\n\n\nmodel.evaluate(X_val, X_val, verbose=0)\n\n2022.39990234375"
  },
  {
    "objectID": "Lecture-8-Generative-Networks/generative-networks.slides.html#some-recovered-image-2",
…
      "Module 8",
      "Generative Networks"
    ]
  },
  {
    "objectID": "Lecture-8-Generative-Networks/generative-networks.html#encoder-summary",
    "href": "Lecture-8-Generative-Networks/generative-networks.html#encoder-summary",
    "title": "Generative Networks",
    "section": "Encoder summary",
    "text": "Encoder summary\n\nencoder.summary()\n\nModel: \"sequential_2\"\n_________________________________________________________________\n Layer (type)                Output Shape              Param #   \n=================================================================\n rescaling_4 (Rescaling)     (None, 80, 80, 1)         0         \n                                                                 \n lambda_2 (Lambda)           (None, 80, 80, 1)         0         \n                                                                 \n conv2d (Conv2D)             (None, 80, 80, 16)        160       \n                                                                 \n max_pooling2d (MaxPooling2  (None, 40, 40, 16)        0         \n D)                                                              \n                                                                 \n conv2d_1 (Conv2D)           (None, 40, 40, 32)        4640      \n                                                                 \n max_pooling2d_1 (MaxPoolin  (None, 20, 20, 32)        0         \n g2D)                                                            \n                                                                 \n conv2d_2 (Conv2D)           (None, 20, 20, 64)        18496     \n                                                                 \n max_pooling2d_2 (MaxPoolin  (None, 10, 10, 64)        0         \n g2D)                                                            \n                                                                 \n flatten_2 (Flatten)         (None, 6400)              0         \n                                                                 \n dense_4 (Dense)             (None, 400)               2560400   \n                                                                 \n=================================================================\nTotal params: 2583696 (9.86 MB)\nTrainable params: 2583696 (9.86 MB)\nNon-trainable params: 0 (0.00 Byte)\n_________________________________________________________________",
    "crumbs": [
      "Module 8",
      "Generative Networks"
    ]
  },
  {
    "objectID": "Lecture-8-Generative-Networks/generative-networks.html#decoder-summary",
    "href": "Lecture-8-Generative-Networks/generative-networks.html#decoder-summary",
    "title": "Generative Networks",
    "section": "Decoder summary",
    "text": "Decoder summary\n\ndecoder.summary()\n\nModel: \"sequential_3\"\n_________________________________________________________________\n Layer (type)                Output Shape              Param #   \n=================================================================\n dense_5 (Dense)             (None, 400)               160400    \n                                                                 \n reshape_2 (Reshape)         (None, 20, 20, 1)         0         \n                                                                 \n conv2d_3 (Conv2D)           (None, 20, 20, 128)       1280      \n                                                                 \n up_sampling2d (UpSampling2  (None, 40, 40, 128)       0         \n D)                                                              \n                                                                 \n conv2d_4 (Conv2D)           (None, 40, 40, 64)        73792     \n                                                                 \n up_sampling2d_1 (UpSamplin  (None, 80, 80, 64)        0         \n g2D)                                                            \n                                                                 \n conv2d_5 (Conv2D)           (None, 80, 80, 1)         65        \n                                                                 \n lambda_3 (Lambda)           (None, 80, 80, 1)         0         \n                                                                 \n rescaling_5 (Rescaling)     (None, 80, 80, 1)         0         \n                                                                 \n=================================================================\nTotal params: 235537 (920.07 KB)\nTrainable params: 235537 (920.07 KB)\nNon-trainable params: 0 (0.00 Byte)\n_________________________________________________________________\n\n\n\nmodel.evaluate(X_val, X_val, verbose=0)\n\n2022.39990234375",
    "crumbs": [
…
